…
Found 20 images belonging to 2 classes.
2023-11-19 10:52:09.306405: I tensorflow/core/platform/cpu_feature_guard.cc:182] This TensorFlow binary is optimized to use available CPU instructions in performance-critical operations.
To enable the following instructions: SSE SSE2 SSE3 SSE4.1 SSE4.2 AVX AVX2 FMA, in other operations, rebuild TensorFlow with the appropriate compiler flags.
Model: "sequential"
_________________________________________________________________
 Layer (type)                Output Shape              Param #   
=================================================================
 conv2d (Conv2D)             (None, 148, 148, 32)      896       
                                                                 
 max_pooling2d (MaxPooling2  (None, 74, 74, 32)        0         
 D)                                                              
                                                                 
 conv2d_1 (Conv2D)           (None, 72, 72, 64)        18496     
                                                                 
 max_pooling2d_1 (MaxPoolin  (None, 36, 36, 64)        0         
 g2D)                                                            
                                                                 
 conv2d_2 (Conv2D)           (None, 34, 34, 128)       73856     
                                                                 
 flatten (Flatten)           (None, 147968)            0         
                                                                 
 dense (Dense)               (None, 512)               75760128  
                                                                 
 dense_1 (Dense)             (None, 1)                 513       
                                                                 
=================================================================
Total params: 75853889 (289.36 MB)
Trainable params: 75853889 (289.36 MB)
Non-trainable params: 0 (0.00 Byte)
_________________________________________________________________
Epoch 1/20
5/5 [==============================] - 9s 2s/step - loss: 0.7043 - accuracy: 0.5000 - val_loss: 0.7012 - val_accuracy: 0.5000
…
